models/checkpoint.pth (torch_old, 28441 bytes, 6 tensors)

fc1.weight f4 [64, 37]
000000 69 de e7 3d 50 8a 80 3b b8 f6 46 bd 39 a4 41 be
       0.11321718 0.003922738 -0.048575133 -0.18910302
000010 8f 95 10 be 1b 96 6a bd 0e 17 aa bd a5 bb 19 bd
       -0.14119552 -0.057272058 -0.083051786 -0.037532467
000020 e3 4c 2e 3d e6 b0 c6 bd 61 43 7c 3d 22 1f 11 3e
       0.042553794 -0.097017094 0.061587695 0.14172032
000030 a4 ca 27 bd e6 2e 35 be a2 bb 9d 3d e2 1a 63 3e
       -0.040964738 -0.17693672 0.07701804 0.22178224
000040 13 28 13 be b4 ed dc be 43 00 28 be a6 9e 3d bf
       -0.14370756 -0.43150103 -0.1640635 -0.74070203
000050 0c c8 4b 3d 17 f0 48 3c ea 0b 00 3d a6 80 26 3e
       0.049751326 0.012264273 0.031261362 0.16260013
000060 22 8c 7c 3c b6 30 c6 3d 1a f8 f2 3d 8f 11 11 3d
       0.01541427 0.096772596 0.11863728 0.035417136
000070 a7 13 c2 bd 42 79 90 be cb 41 8c 3d a2 de 2a 3e
       -0.09476405 -0.28217512 0.068484865 0.1668649
000080 f2 2d 95 3d 11 af 1a bc 52 61 84 3e e6 b2 26 3e
       0.07284154 -0.009441153 0.258555 0.16279182
000090 b6 a5 80 3c 86 67 d5 3d 1e 96 9c 3b 24 68 02 be
       0.015704017 0.10420136 0.0047786376 -0.12735039
0000a0 85 6e 26 be 66 66 d3 be 42 86 c0 bd b9 9b dc 3b
       -0.16253097 -0.4128906 -0.09400608 0.006732431
0000b0 5c 4e df 3d 2b e6 8b 3e 9e 73 47 3d e2 76 83 bc
       0.10903618 0.27324042 0.048694246 -0.016047899
0000c0 37 60 8f 3d c3 83 ac bd 44 b7 0e be 0f 45 c0 3e
       0.070007734 -0.08423569 -0.13937098 0.37552688
0000d0 14 c6 97 3d d1 06 b0 3d 3c 5e d4 3c 7a 8f a2 bd
       0.07410827 0.0859505 0.02592384 -0.07937522
0000e0 04 ac 54 bb 7f cc 02 be 4a 93 d9 3d 9a ab 44 3e
       -0.0032451162 -0.12773322 0.10623796 0.19206086
0000f0 42 49 39 bd d2 71 da bd ce 63 05 3e a7 a9 73 be
       -0.04523588 -0.10666241 0.13026354 -0.23795186
000100 34 5a 05 3d 5c fa a0 bd 76 e1 16 bf 51 15 09 be
       0.032556728 -0.07860252 -0.58937776 -0.13387038
000110 32 94 29 3e 58 fe 47 3e 23 94 c8 bd 43 70 43 bd
       0.16560438 0.19530618 -0.0979388 -0.047714483
000120 36 fb ee 3c 0d 01 86 3b e2 53 de 3d cd fc 97 bb
       0.029172521 0.0040894807 0.10855843 -0.0046382905
000130 97 d1 83 3d 5b 77 a8 3d 0c d2 4a bc 01 74 a1 3d
       0.064364605 0.0822589 -0.012379181 0.07883454
000140 d6 98 32 3d f9 a0 81 3c 3f 4b 84 bc 08 2f d0 bd
       0.043602787 0.015823828 -0.016149161 -0.101652205
000150 70 fd 6f 3d 6a 8f cb 3d 27 8b 00 3e 62 2e 2e 3d
       0.058591306 0.099394634 0.12553082 0.042524703
000160 50 2c d1 3c 79 f6 fc 3d 0e 0a 8c 3d ba 35 2d 3d
       0.025533825 0.123516984 0.06837855 0.042287566
000170 0a b9 4e 3b 7f 84 8f bd cb e5 f0 3a 2a 10 99 bd
       0.0031543397 -0.070076935 0.001837903 -0.07473786
000180 2f 3d be bd 4d 9e 3c 3d 11 a5 d4 3d b5 24 c2 3e
       -0.092890136 0.046049405 0.103830464 0.3791863
000190 40 97 de be b9 74 07 bf ba 1a da be f1 ae e6 bf
       -0.4347477 -0.5291248 -0.42598516 -1.8022138
0001a0 87 09 72 bb 21 91 ba 3c 7b 03 80 3d f8 22 c2 3d
       -0.0036931948 0.022774281 0.06250664 0.09479326
0001b0 5a 2a 00 3e 9d 62 da 3c 6a 76 ec b9 fb ca a3 3e
       0.12516156 0.02665835 -0.00045101653 0.319908
0001c0 64 5a 82 be 26 fc f0 bd ae 12 de be 9b a5 78 bf
       -0.25459588 -0.117668435 -0.43373626 -0.97127694
0001d0 98 ea cb bd d8 a2 07 be bd 1a 24 be 47 b6 04 3e
       -0.099568546 -0.13245714 -0.16025825 0.12960158
0001e0 bc a2 ba bb 73 02 41 bd d3 a6 90 bc 56 73 23 be
       -0.005695669 -0.047121476 -0.017657673 -0.15961966
0001f0 b1 5f ec 3d 79 f4 7d be 66 f4 49 bd 9d 5e 18 bf
       0.11541689 -0.2480029 -0.049305342 -0.5951937
000200 87 5e fe bc 7f e0 13 3e c5 ac 83 bd c7 fe c6 bc
       -0.031050934 0.14441107 -0.064294375 -0.02429141
000210 4a fb 4c be 34 20 24 3e 00 0f aa 3d f7 fd e6 3d
       -0.20017734 0.1602791 0.08303642 0.11278909
000220 2d 30 03 be b7 fb d4 bd 62 31 1c 3e 83 c3 c5 3d
       -0.12811346 -0.10399573 0.15253213 0.096564315
000230 14 6b 4e 3d 84 55 24 3e 93 66 65 be 0a 1d 3c bd
       0.050395086 0.16048247 -0.2240241 -0.04592613
000240 2e 48 08 be 64 16 80 bd d7 61 eb 3d 89 cf 9e bc
       -0.13308784 -0.06254271 0.11493271 -0.01938607
000250 42 d7 d5 3e 6d 83 ec be 64 2a d1 be b0 f9 9b be
       0.4176579 -0.4619402 -0.40852654 -0.30463934
000260 d0 f5 c5 bf 47 19 90 3d dc e2 79 3d f2 75 4d 3d
       -1.5465641 0.07036071 0.061007366 0.05016131
000270 14 66 b2 bb 06 85 15 be 19 b9 5a 3d 16 51 06 bd
       -0.0054442976 -0.14601526 0.05339918 -0.032792173
000280 a9 e8 8f 3b b9 ee 1d bc 1c 53 01 be f8 02 17 be
       0.004391749 -0.009639435 -0.1262936 -0.14747226
000290 02 32 aa 3d 87 c8 4d 3d 85 7e 97 bd b3 78 3b 3e
       0.083103195 0.050240066 -0.073971786 0.18307762
0002a0 70 af 20 3d b5 d3 00 3e d0 49 ef 3d 04 fe 69 3d
       0.03922981 0.1258076 0.116840005 0.057127014
0002b0 4a e6 0e 3e 2b ea 2d bd 0a 79 40 3c 7a e4 31 3d
       0.13955036 -0.042459648 0.011747608 0.043430783
0002c0 60 0b e3 3b 53 b7 0c 3e 80 47 d3 3d 23 da cf 3d
       0.0069288462 0.13741808 0.10316372 0.10149028
0002d0 39 4f eb 3d 38 35 97 3d df e5 8c 3d 6b 4a b7 3b
       0.1148972 0.073831975 0.06879782 0.005593588
0002e0 c8 ae 65 3a 5a c4 06 bc d7 54 ae bd a5 ef 79 bc
       0.0008761701 -0.008225525 -0.08512276 -0.01525489
0002f0 c6 88 8b 3d 60 ee e9 3d 4f 0f 4c 3d 6e 87 2a 3e
       0.06813197 0.114224195 0.049819287 0.16653225
000300 5d 8a c1 3d de 4f d5 3c f0 58 5e 3e 5f 14 8b 3e
       0.09450219 0.02603906 0.21713614 0.2716398
000310 ee 3c 0d be ad 73 5a be 29 fc 3e be c6 1c 8c bf
       -0.13792774 -0.2133319 -0.18650879 -1.0946281
000320 b9 9f 24 3d 06 c9 1a 3e 31 28 fc 3b dd 23 d3 bd
       0.040191386 0.15115747 0.007695221 -0.10309575
000330 bd b6 9b 3d 9f fe 85 bd a3 b0 d7 bc 4f 9e cc 3c
       0.07603214 -0.06542706 -0.026329344 0.024977831
000340 20 3d 11 3d 68 be 1c 3e 6a 8e 18 be 4d 4e b8 bd
       0.035458684 0.15307009 -0.14898077 -0.0899931
000350 dd 6e 44 3e f7 6e 3c 3d 34 1a 4f 3e 7d 98 dc 3d
       0.19182916 0.04600426 0.2022484 0.10771272
000360 38 64 07 3d 04 76 19 3c 35 56 29 bd ac a6 7c be
       0.03305456 0.009366516 -0.04134198 -0.24672955
000370 1e 15 43 3d 08 ed 01 3c 74 23 4c be b3 70 09 3d
       0.04762756 0.007930048 -0.199354 0.033554744
000380 2c 4e dd 3d 12 6c 22 3e d9 fb 68 3e 9a 95 97 bc
       0.10805926 0.15861538 0.22752322 -0.018503953
000390 ce c0 ab bd 46 76 c9 bd 0f 3b df bd 9d d8 71 be
       -0.08386384 -0.09837012 -0.108999364 -0.23617788
0003a0 75 71 5b 3e ed d6 27 3e 59 c6 76 3e ac e2 c0 bd
       0.21429999 0.16390581 0.24099101 -0.09418234
0003b0 f6 51 15 be c7 24 7a 3e fc f4 85 bd 14 e9 24 bd
       -0.14582047 0.24428092 -0.06540868 -0.040261343
0003c0 96 78 78 be 4f 07 46 bf 59 9e 36 be 43 4e 70 bd
       -0.2426475 -0.773549 -0.17833842 -0.058668386
0003d0 db 3b 43 3c 18 5e 61 3d 7b 3f 9a 3d 69 06 4f be
       0.011916126 0.055021375 0.07531639 -0.20217289
0003e0 94 e8 ba 3c 99 61 84 3e eb 80 58 3d 93 ed da 3e
       0.02281598 0.2585571 0.05285732 0.4275938
0003f0 10 5e 77 3d 7e b7 de 3d a8 90 54 be 79 d8 2c 3e
       0.06039244 0.10874842 -0.20758307 0.16879453

fc1.bias f4 [64]
000000 3e f8 03 be cf bd 28 3e 73 91 ec 3d ad c7 c1 3c
       -0.12887666 0.16478656 0.1155118 0.023654783
000010 7b 75 9f bd aa e3 89 3c 97 74 3d 3e b0 8d 8b 3e
       -0.077860795 0.016832191 0.18501507 0.27256536
000020 02 4c 22 be 43 1e 3e bd 7e 74 07 3e df 72 ce 3d
       -0.15849307 -0.04641558 0.13228032 0.10080504
000030 77 9c 5d 3e c2 4c 19 be 54 69 de bd 21 ef 1a be
       0.21641718 -0.14970687 -0.108599335 -0.15130283
000040 ba 78 99 3d f3 d5 30 be 2d 66 c8 bc d5 00 24 3d
       0.0749373 -0.17269115 -0.024462784 0.040039856
000050 db 35 a6 3c 70 60 2a 3d f4 7c c5 3d d8 ff 0a 3e
       0.020289352 0.041595876 0.096429735 0.13574159
000060 ea 1b 03 3e cf d5 8d bd 34 da 45 3e 0a ef f7 bc
       0.12803617 -0.069255464 0.19321519 -0.03026535
000070 3d 32 fb bd 5a 63 20 3e 62 86 c0 bd b1 82 11 3e
       -0.122654416 0.156629 -0.094006315 0.14210011
000080 d1 93 4b 3d c5 f9 09 be f2 7f ca bc 94 d4 78 3d
       0.049701516 -0.13474186 -0.024719212 0.060749605
000090 55 b0 f7 3c 73 aa 02 be 67 32 f6 bd 3b b7 e6 bd
       0.030235449 -0.12760334 -0.12021332 -0.11265417
0000a0 36 35 ab 3c 96 94 3a 3d 2b 72 9b 3d bf eb b5 bd
       0.020899396 0.04555186 0.07590135 -0.088828556
0000b0 75 b1 22 3b e6 fd 33 be a3 d7 9a ba 8d 51 fe bd
       0.002482501 -0.17577323 -0.0011813532 -0.12417898
0000c0 82 3c b2 3d 1a b8 02 be cc 64 4d 3d 4e 2f 38 3e
       0.08702947 -0.12765542 0.050144956 0.17986795
0000d0 39 b5 85 bd f8 0d ec 3d 75 52 e0 bd 9c 00 51 3d
       -0.06528706 0.11526102 -0.109532274 0.05102597
0000e0 37 2d 2a be 42 cc a9 bc 6f b1 32 3e 27 57 16 3e
       -0.1661881 -0.02072728 0.17450498 0.14681683
0000f0 83 be 4f 3d 34 5b c2 bc a7 c9 02 3e d8 08 98 bd
       0.050718796 -0.02372513 0.12772237 -0.07423562

fc2.weight f4 [64, 64]
000000 80 f8 85 3e 5c 10 98 3d 30 a0 b3 3d cb 25 fd 3d
       0.26166153 0.07424995 0.08770788 0.12360724
000010 3a f3 a3 3c b8 fb 09 be 32 7c 30 bd fa 2c c5 3d
       0.02001344 -0.1347493 -0.043087192 0.09627719
000020 9b 9c 33 3e 42 09 f9 bd 62 06 a6 3d 6a 81 59 bd
       0.17540209 -0.12159969 0.08106686 -0.053101934
000030 45 e2 23 3e fd 78 b6 3d 4c b8 ac bd 87 0c cb be
       0.16004284 0.089097954 -0.08433589 -0.39657995
000040 f3 87 8b bc 24 94 8d 3d f1 5c 30 3d 02 95 0a 3e
       -0.0170326 0.06913021 0.043057386 0.13533404
000050 c1 40 60 3d 5f 07 29 3c 78 bc 4b 3d 16 46 21 3c
       0.054749254 0.010316699 0.049740285 0.00984337
000060 fb 3a 1e 3d 81 9e eb bd 28 53 94 3c b3 75 02 be
       0.038630467 -0.115048416 0.018106058 -0.12740211
000070 72 23 62 3d 94 4b 0f 3e 01 4f cb 3d 90 1c 93 3c
       0.055209585 0.13993675 0.09927178 0.017957956
000080 d3 b0 68 3d 4c 40 28 be 34 1d 32 3e 3d b9 89 3d
       0.056809258 -0.16430777 0.17393953 0.067247845
000090 d3 c6 95 3e 22 eb e3 3c 04 4f cd be 9a 7d 04 bd
       0.29253253 0.027822081 -0.40099347 -0.032346345
0000a0 56 75 ab bc 53 0b 20 bd ee d2 68 3e 96 9e 8a bd
       -0.020929974 -0.0390733 0.22736713 -0.06768529
0000b0 c9 09 55 3d e1 bb 3a 3d 4f 2d db bd 79 b0 83 3b
       0.052011285 0.04558933 -0.10702001 0.00401884
0000c0 7f db e9 bc 8d 1c 51 3c 38 60 54 bd 3c c6 28 3d
       -0.028547047 0.012763155 -0.051849574 0.041204676
0000d0 00 c7 bf 3c ca 30 d3 3d f7 2a ac bc 14 2f 99 3d
       0.02341032 0.1031204 -0.021016581 0.074796826
0000e0 fa 10 25 3d 67 93 33 3d 61 4d 4e 3d 01 31 04 3e
       0.040299393 0.043841746 0.050366763 0.12909319
0000f0 7e ca 34 3d 85 3a 0f 3c 71 03 13 3e 8d 57 e6 3d
       0.044138424 0.0087419795 0.14356782 0.11247168
000100 2a 7d ae bd 77 79 85 bd 61 b6 9e bd c1 a0 14 be
       -0.08519967 -0.06517308 -0.0774963 -0.14514448
000110 7a 02 ec bd 51 9d 84 3b 96 c2 c4 3c d5 d4 a1 bb
       -0.1152391 0.004047074 0.024018567 -0.0049387016
000120 60 f0 a3 be 53 f0 bc bd 82 89 c9 bd 6b aa 16 bd
       -0.3201933 -0.09225526 -0.09840681 -0.036783617
000130 47 e8 d9 bc ee 89 bb bd 8a 25 2a be b6 a9 88 bd
       -0.026600016 -0.091571674 -0.16615883 -0.06672995
000140 02 62 87 bd 05 4b f1 bd 21 33 39 3c c9 12 78 be
       -0.066104904 -0.11781887 0.011303694 -0.24225916
000150 99 90 03 bd 45 3a 2a 3d 0a 0a 94 bd e5 14 c9 3d
       -0.03212032 0.041559476 -0.07228477 0.098184384
000160 f5 40 32 be 28 25 0d 3e 70 50 c2 bb 14 e7 90 bd
       -0.17407592 0.13783705 -0.005929999 -0.07075325
000170 d9 41 3a be 63 b1 27 3d ed 06 e5 bd c9 7d 52 3d
       -0.18189181 0.040940654 -0.111829616 0.05138949
000180 11 28 66 bd d9 69 56 be 3a f5 3c 3d 44 ec 0a bc
       -0.056190554 -0.20938815 0.046132304 -0.008479182
000190 2a 40 d2 bd 44 ec 56 3d 98 53 1e bc dc 9e 57 be
       -0.102661446 0.052471414 -0.009663485 -0.21056694
0001a0 28 bc 55 be 1c ad 46 3e f1 d7 5e 3e 3e 99 52 bd
       -0.20872557 0.19401973 0.21762063 -0.051415674
0001b0 b8 c0 e5 3b eb 7d 17 be 45 ec 5c 3e 59 0c 87 be
       0.0070114993 -0.14794128 0.21574505 -0.26376608
0001c0 55 cc 0a 3e df d2 29 be f9 d6 a6 3b 14 1f 35 be
       0.13554509 -0.16584347 0.0050915447 -0.17687637
0001d0 43 fd 30 3e 95 2e de 3c 4d 8a a6 be 2e 1e f5 3d
       0.17284112 0.027121821 -0.3252739 0.11968647
0001e0 61 f9 14 3c f4 06 9b bd fb 21 cd bd 01 6d 0b 3c
       0.00909266 -0.075696856 -0.10016247 0.008509875
0001f0 9b ff 05 3d 87 da 25 bd 5c 77 e3 3d 44 31 f3 bd
       0.032714467 -0.040491607 0.1110675 -0.11874631
000200 5e 8c f7 bd 74 f8 ee 3c c0 38 18 be 14 fb 80 3e
       -0.1208732 0.029171206 -0.14865398 0.25191557
000210 de 0b 81 be e6 41 ee 39 9b 19 4c bc 3f 32 52 be
       -0.25204366 0.00045443996 -0.012457277 -0.2052698
000220 e9 79 08 be 37 f0 50 bd e8 8e f1 bd a1 7f 97 3b
       -0.13327755 -0.051010337 -0.11794835 0.004623369
000230 58 7f db bd f8 28 53 b7 f4 7e d8 bc c9 35 72 bc
       -0.10717648 -1.2586119e-05 -0.026427723 -0.014783331
000240 ca 47 3d bd 0c 57 9c bd 16 37 1d bd c6 06 9a 3d
       -0.04621104 -0.076337904 -0.038382612 0.07520823
000250 96 e3 a9 39 7a 74 f9 bd a5 da c7 3c b7 db 2c 3e
       0.00032403757 -0.12180419 0.02439625 0.1688069
000260 05 4a 04 3d 6c 39 d0 3d d9 ad 40 38 7e 08 81 bd
       0.032297153 0.10167202 4.5938275e-05 -0.06300448
000270 7b cb d3 bd 53 d4 7f 3d 34 96 46 3d 22 4b 56 3e
       -0.10341545 0.062458348 0.04848309 0.20927098
000280 ea ab 07 3e 56 56 15 be 98 a4 84 3e 44 eb 00 be
       0.13249174 -0.14583716 0.25906825 -0.12589747
000290 8f d4 a7 be 5c 3b 08 be de ad 31 be da ff b3 bd
       -0.32779357 -0.13303894 -0.17351481 -0.08789034
0002a0 fb 46 ca 3b ec 19 5e 3e f0 3c 24 bd 66 3f ce bd
       0.0061730123 0.21689576 -0.040097177 -0.10070686
0002b0 26 15 07 be 23 a5 26 bc 10 5e f3 3d 81 df eb bd
       -0.13191661 -0.010171208 0.118831754 -0.11517239
0002c0 8f c5 45 3e 57 ea 0d 3d 01 47 b7 3d 6b 18 79 be
       0.19313644 0.034647312 0.0894909 -0.24325721
0002d0 7b 22 06 3f 63 26 48 bd a1 59 25 bd 52 69 d6 3c
       0.52396363 -0.048864733 -0.04036868 0.026173268
0002e0 bb cf fe 3d 0e dc b9 bd c5 48 5d be e3 8b a5 3d
       0.12441965 -0.09075175 -0.2160979 0.08083322
0002f0 21 1a 21 be 28 15 09 3e ef f8 25 bd 04 93 80 be
       -0.15732624 0.13386977 -0.040520605 -0.25112164
000300 5a 0e 95 bc 5b 21 24 3e f1 ff a1 3d 6b a1 c2 bd
       -0.01819532 0.16028349 0.07910145 -0.09503444
000310 c7 3a b4 bc 1e e0 ed bd 44 d4 69 bd 0a 98 ca 3e
       -0.022000683 -0.116150126 -0.057087198 0.39569122
000320 5e cb b0 bd 36 5f b2 bd 6d c5 99 3d aa f0 40 bd
       -0.08632539 -0.08709566 0.07508359 -0.047104515
000330 eb 27 1c 3e dc 07 a3 bd 85 9e ba 3c fe 98 cf 3d
       0.15249602 -0.079604834 0.022780666 0.10136603
000340 75 af 45 bd 12 a3 18 be 18 44 b1 3d ff 75 6f be
       -0.048263032 -0.14905956 0.08655566 -0.23384856
000350 16 27 c5 bc ed fb 3c bd b2 2f 40 3e 6f 4e ac bc
       -0.02406649 -0.046138693 0.18768194 -0.021033494
000360 81 e5 31 be c8 72 b3 3d bd be 27 be 06 d6 41 3e
       -0.17372705 0.08762127 -0.16381355 0.189293
000370 35 e9 81 3d 5e bc 03 3e ed 50 bc 3c 7c bb cb bc
       0.06343309 0.12864825 0.022987807 -0.024869673
000380 d6 1f 14 be ae 77 d7 bd ec f8 7d bd ed 2b 99 3e
       -0.1446527 -0.10520874 -0.06200497 0.29916325
000390 81 22 25 bc 72 5a 39 3d 6f cb c8 bd 24 0c 0e bd
       -0.010079027 0.04525227 -0.09804427 -0.034679547
0003a0 14 09 bd 3d e9 08 5a be 7d a4 1f be cd 66 f4 bc
       0.09230247 -0.21292461 -0.15590091 -0.029834175
0003b0 24 54 4b 3d fc 5c 09 3b e9 e7 a9 bd 22 e8 5d 3c
       0.04964079 0.0020959964 -0.082961865 0.013544114
0003c0 a9 f7 9c bd fa 54 e7 3d c9 18 c1 bd 54 63 92 bc
       -0.07664425 0.11295505 -0.094285555 -0.017869629
0003d0 c8 81 66 be 4a 43 d3 bc 30 89 c9 bd d9 3d 06 3d
       -0.22510445 -0.025788922 -0.098406196 0.032773826
0003e0 60 c3 7b bc a2 b3 a4 bd 2a 1c 52 bd 7e 31 07 be
       -0.015366405 -0.08042075 -0.05129639 -0.13202474
0003f0 ff e7 8b 3e b7 7b 19 be cd 95 c9 3d 61 28 5d be
       0.27325436 -0.149886 0.09843025 -0.21597435

fc2.bias f4 [64]
000000 e3 37 a0 3d 1f d0 83 3d 2e 88 2b 3d 21 48 e0 3d
       0.078231595 0.0643618 0.041877918 0.109512575
000010 be 80 21 3d 73 17 fc 3d 36 1d b7 bd 17 c1 79 3d
       0.03942942 0.1230916 -0.089411184 0.06097516
000020 64 b4 d0 bd c7 12 74 3e 67 20 ac bd e6 c4 d4 bd
       -0.10190657 0.23835288 -0.08404618 -0.10389118
000030 3e e3 6c 3d 8e f5 96 3e 59 c0 84 bc f5 b9 65 bb
       0.057833903 0.29484218 -0.016205 -0.0035053466
000040 9e 3a 8b 3c 0a 9f 0d 3b d1 d8 7d bd 10 9c 0d be
       0.016995724 0.0021609687 -0.06197435 -0.13829064
000050 5f a0 e1 bc 7f b7 73 3b 77 15 95 bd 41 cb 5b 3d
       -0.027542291 0.003718823 -0.07279485 0.053660635
000060 f2 11 7e bd a7 c9 a5 bc c4 74 1f 3d fd 43 33 be
       -0.062028833 -0.020237757 0.038929716 -0.17506404
000070 40 2d 75 3d e0 ff eb bc 1c 8a 74 bd 33 4a 4a bd
       0.059857607 -0.028808534 -0.059702024 -0.04938717
000080 c2 2d 03 3f a4 be 54 3d c5 3c 6c 3d 3b 75 af 3d
       0.51241696 0.05193962 0.05767514 0.08567282
000090 ad d4 90 bd 4a 9a 2a be 37 5c 53 3d 86 7d 18 3d
       -0.07071815 -0.16660419 0.051601615 0.037229083
0000a0 0c 26 25 3e 65 70 6b bd 2a 1e 26 be 10 be 85 bc
       0.16127795 -0.057480235 -0.16222444 -0.01632598
0000b0 2b 66 98 3d 48 72 bc bc 08 47 89 3d 4a df 0c be
       0.07441362 -0.023003712 0.06703001 -0.13757053
0000c0 82 eb e4 3d 8b ff 5d 3d ba 41 0e be 96 27 dd 3c
       0.11177732 0.054198783 -0.1389226 0.026996415
0000d0 97 7f 89 bd 5d 44 a1 bd 00 69 a0 3c 3b 7f fd 3d
       -0.06713789 -0.078743674 0.019581318 0.12377783
0000e0 de b2 67 3d b4 d7 be 3a 66 ca 8f bc 44 e1 a8 3d
       0.056567065 0.0014560134 -0.017552566 0.08246091
0000f0 d3 b1 9e 3c 20 e9 4e bd a4 3f bd 3d 5b 4d d2 3b
       0.019371903 -0.050515294 0.09240654 0.006417913

predictions.weight f4 [4, 64]
000000 d7 e3 45 be ac ce 0e be 77 09 80 3e d4 8b 4e 3e
       -0.19325195 -0.13946027 0.2500722 0.20170528
000010 cb 3b 7a 3e f7 8f 02 3e 50 e9 d4 3d 06 fd eb 3b
       0.24436872 0.1275023 0.10396063 0.0072017936
000020 5a ee 01 bf f8 33 fd 3b da bd 9c be e2 98 14 bc
       -0.5075432 0.0077271424 -0.30613595 -0.009069653
000030 b3 16 e6 3d 7b 54 05 3c ae fe 0e 3a 88 e2 f3 bd
       0.11234798 0.0081378175 0.00054548203 -0.11908442
000040 bc 69 47 3d 7b bb 23 3e 24 52 d5 3e b5 48 36 be
       0.04868482 0.15989487 0.4166423 -0.17801173
000050 68 a4 01 3e c7 ba 0a 3e 58 15 8a 3d 48 a0 65 3e
       0.12660372 0.13547812 0.06742352 0.22424424
000060 be 1e e5 bd 0c a0 ae 3e 14 17 0d be 81 82 f1 bd
       -0.11187504 0.3410648 -0.13778335 -0.1179247
000070 3a f2 89 3e 8f ab 83 3e 4b 17 18 3d 86 81 0b 3e
       0.26942617 0.25716826 0.03713159 0.13623628
000080 b4 ee 4f 3e 3f 9f 68 bd 5c ce 25 3d e7 5c 4f be
       0.20305902 -0.056792494 0.040480003 -0.20250283
000090 4e 63 07 3d 32 87 05 be 0b a3 65 be e9 f7 2f 3d
       0.03305369 -0.13039854 -0.22425477 0.042961035
0000a0 a0 04 79 3e ac 1a b6 3c ae 6e 33 be 37 f3 ee 3d
       0.2431817 0.022229515 -0.1752269 0.11667483
0000b0 b9 fe 66 3e 1c a0 d5 3e 82 c1 1c bd 85 80 5b be
       0.22558106 0.41723716 -0.03827048 -0.21435745
0000c0 47 6d 21 3e 31 bc df 3c 72 1e a0 bd 32 68 2e 3e
       0.15764342 0.027311416 -0.07818307 0.17031935
0000d0 3a fd d0 3c f8 55 d0 bd 62 fc be 3e 3e 81 a7 3e
       0.025511373 -0.10172647 0.37301928 0.3271579
0000e0 83 35 99 bd 3b 36 15 3e cd 95 3e 3e 0f 0d 17 3e
       -0.0748091 0.14571469 0.18611832 0.14751075
0000f0 2f 2c e1 3a 82 21 7c 3e 32 81 1a 3e a2 8c c6 3e
       0.0017179305 0.24622157 0.15088347 0.3877917
000100 8f a3 b4 bd 1c 61 b5 3d ff 28 9d 3e 8d 91 6f 3e
       -0.08820259 0.08856413 0.3069534 0.23395367
000110 49 33 0e 3e f1 d6 ce 3d c6 9d ae 3e 9c f4 a9 be
       0.13886751 0.100995906 0.34104747 -0.33194435
000120 03 68 29 be af d5 14 3d 52 22 65 bd 92 f2 94 3d
       -0.16543584 0.036336597 -0.055940934 0.07272829
000130 c0 63 19 3e 2b 15 d9 3d 79 3a 1b be 55 57 41 bd
       0.14979458 0.105997406 -0.15159024 -0.047202427
000140 31 69 95 3d d0 66 c0 3e 9b a7 bb 3e 4f 0b 39 be
       0.07295454 0.3757844 0.3665131 -0.1807072
000150 a9 0a c4 ba 1c 77 78 3e 85 ef 2b bd 2b 94 fc 3e
       -0.001495679 0.24264187 -0.04197647 0.49331793
000160 dc 96 bc 3d c8 4a b8 bd af 17 6c 3d e8 09 17 be
       0.09208462 -0.089986384 0.057639774 -0.14749873
000170 12 1b 51 3e ed f0 56 be f7 13 12 3e 9b 7e 16 3e
       0.20420483 -0.20990343 0.14265428 0.14696734
000180 12 6d 5e 3e 68 e0 ec 3e 3c 58 4f be 57 14 36 3e
       0.21721295 0.46264958 -0.20248502 0.17781197
000190 38 5b 18 3e 34 5b bf bb 0a de 8a bd 40 60 ce bd
       0.14878547 -0.0058397297 -0.06780632 -0.10076952
0001a0 ce c2 22 3e 62 61 04 3d 00 7f 4c bd 2c 32 43 be
       0.15894625 0.032319434 -0.049925804 -0.19062108
0001b0 73 57 01 3e 73 24 aa 3e 40 bc 9b 3e 87 53 a0 bc
       0.12631015 0.33230934 0.3041706 -0.019571079
0001c0 0d b7 74 3e 7b 5b bc 3e 36 84 77 bc 43 73 ab 3e
       0.23897953 0.36788544 -0.015107205 0.33486375
0001d0 80 2b 4d bc 8b 62 8a bd 34 f0 dd 3e b4 1f 7c 3e
       -0.012522578 -0.06757077 0.43347323 0.24621469
0001e0 33 af 10 be 04 5c 27 3e 6e f8 93 bd 25 a3 5e bd
       -0.14129333 0.16343695 -0.072251186 -0.054354805
0001f0 d1 0c 43 be 77 f4 2e 3e 8e d7 76 be af f6 bd 3e
       -0.19047858 0.17085443 -0.24105665 0.37102267
000200 f2 51 78 3b bc 10 21 3e 18 5a 8f 3e 7d 8e 0b bc
       0.003789064 0.1572904 0.27998424 -0.008517859
000210 4c ee ac 3e 1a 85 31 3e 65 b0 c8 be c0 03 75 be
       0.33775556 0.1733593 -0.39197078 -0.23927212
000220 51 5f 8e be 50 0c 0a 3e c2 87 45 be aa ad b6 bd
       -0.27807096 0.1348126 -0.19290069 -0.089198425
000230 99 b5 bb 3d 54 31 44 3e 95 ec 87 3e 15 33 dc bb
       0.091654964 0.19159442 0.26547685 -0.0067199566
000240 2b 84 bf 3e 98 22 c9 3e 28 49 8f 3e 17 86 14 be
       0.37405524 0.39284205 0.279855 -0.14504276
000250 4c 44 46 3e 16 3f 83 3e e0 c2 7e 3e e0 fb 46 3f
       0.1936199 0.25634068 0.24879026 0.7772808
000260 bf 59 fc 3c 65 8c 20 3e 0a 1f 25 3e e6 33 a6 be
       0.030804513 0.15678556 0.16125122 -0.3246147
000270 db 68 46 3e f5 9b 50 be e7 a2 e4 3d 53 c7 29 3e
       0.19375937 -0.20371993 0.11163884 0.16579942
000280 2f 36 48 3e a6 04 2c 39 9d 4a 94 3d bf b3 82 be
       0.1955192 0.0001640493 0.07240794 -0.2552776
000290 cb 5e 02 be 53 d7 68 3e 5c 52 15 3e 83 7e c3 3e
       -0.12731473 0.2273839 0.14582199 0.38182458
0002a0 bb 58 c7 3d 43 fe 30 3e cb f0 92 3d 42 c9 51 3e
       0.09733721 0.17284493 0.07174834 0.2048693
0002b0 51 ee bf 3e 75 83 ac 3e 0a ce 56 be ac c5 35 be
       0.37486508 0.33694044 -0.20977035 -0.17751187
0002c0 51 2c 2f 3d 12 c9 08 be b2 34 a1 bd c1 94 af 3e
       0.042766873 -0.13357952 -0.07871379 0.34293178
0002d0 f7 48 63 be 18 e6 7b be 40 1f a4 3e 64 da 2d 3e
       -0.22195803 -0.24599493 0.32055092 0.1697784
0002e0 27 2b 88 3c 40 66 22 be 20 42 67 3e ed 12 0a 3e
       0.01662214 -0.15859318 0.22583818 0.13483782
0002f0 2d 23 33 be 37 5a 82 3c ab 9f 2e be b7 7d a1 3e
       -0.17493887 0.015912158 -0.17053096 0.31541225
000300 64 cb e3 bd bc 99 f5 3b eb e6 b4 3d ad 3a 98 3c
       -0.11122778 0.007495133 0.088331066 0.018582666
000310 2b 9e 5b 3e 7f b9 00 3e bb 43 41 3e 4a 74 84 3e
       0.21447055 0.12570761 0.18873493 0.25869972
000320 a1 b0 ac be 46 be 29 3e 13 2f 63 be ba d2 29 be
       -0.33728507 0.1657649 -0.22185926 -0.16584292
000330 26 b2 95 3e 4f 9f e8 3d a0 ef 75 3d c0 44 bf 3d
       0.2923748 0.11358511 0.060042977 0.09339285
000340 e5 db ba 3e 63 2e a5 be b8 9b 0e 3f 31 53 47 be
       0.3649589 -0.32261953 0.5570636 -0.19465329
000350 88 3b d2 3c de f2 a4 3e 13 4d c0 3c f0 78 ef bd
       0.025663152 0.32216543 0.023474252 -0.11692989
000360 90 aa 01 bf 8d ba 8e 3e 96 b7 e5 bd 90 27 cc 3b
       -0.5065088 0.27876702 -0.11216657 0.006230302
000370 41 ef 23 3e 98 6f a8 3d 7e 07 72 3e 67 85 fc 3d
       0.16009237 0.0822441 0.2363567 0.12330132
000380 54 c2 62 3e 5b 6b 4a 3a ff e1 b6 be 97 f0 8e be
       0.22144443 0.00077216857 -0.35719296 -0.2791793
000390 3c e9 64 3e 03 df 9d 3d bf 77 92 bd 01 00 db 3d
       0.22354597 0.07708552 -0.07151746 0.1069336
0003a0 61 1b 62 3d 71 4c 1e 3e 28 cf 58 be b4 67 21 be
       0.05520189 0.15458848 -0.21172774 -0.15762216
0003b0 eb 52 c8 3e 88 c7 5e 3e 05 a1 ac 3d 34 04 28 be
       0.3912576 0.21755803 0.084291495 -0.16407853
0003c0 01 bc 9e 3e a3 85 80 3e 37 bb 60 3e da c6 b5 3d
       0.3100281 0.25101957 0.21946417 0.088758186
0003d0 0e d4 9b 3e 82 04 f5 bd d0 de 1e 3f 59 78 9f 3e
       0.30435222 -0.119637504 0.62058735 0.31146505
0003e0 ba 87 42 be 0d 89 7a bd 96 94 2c 3e be fa 0d be
       -0.18997088 -0.061165858 0.16853556 -0.13865182
0003f0 49 67 73 3e c6 68 f8 bb fc 72 dc 3e a0 fb eb 3d
       0.23769869 -0.0075808493 0.43056476 0.11522603

predictions.bias f4 [4]
000000 7b b4 a6 3e 51 08 6b 3e 70 e6 4d 3e 16 91 2c 3e
       0.3255957 0.22952391 0.20107436 0.16852221
